models/sign_language_model.tflite (tflite, 69272 bytes, 8 tensors)

arith.constant f4 [26, 32]
0.30445114 -0.3037275 0.30081356 -0.756851 0.20554471 -0.0028451814 -0.36733016 -0.28093928
0.3767042 0.09132723 0.013996613 -0.009321633 -0.42792454 0.29638237 -0.06666239 -0.30453318
-0.1275389 -0.16461591 -0.70926005 -0.40823564 0.16799262 -0.43577957 -0.054195795 -0.050593454
0.37713602 0.3358706 -0.6316967 -0.032838516 -0.086481854 -0.03905091 -0.023514597 -0.25402996
0.2630223 0.50830126 -0.19306637 0.15687333 -0.4499749 0.46031684 -0.4878108 0.35789827
-0.22894414 0.40376085 -0.2761298 -0.20219854 -0.3594415 -0.33490434 0.0026489655 -0.16202155
0.19615279 0.056693852 -0.0892767 0.28439727 -0.28563836 -0.6735155 -0.14363727 0.1315605
-0.14358996 -0.6145776 0.25850186 -0.7001506 -0.8974422 -0.7613639 -0.7945565 -0.19062364
0.08988113 -0.0521257 0.2502083 -0.62963235 0.022252906 0.28479376 -0.044527747 0.21889547
-0.045801193 0.11972897 0.15407704 0.07238187 -0.13615814 -0.1234441 0.07519462 -0.026666703
-0.09240463 0.5139366 -0.7814241 0.40549675 -0.5609441 -0.5703448 -0.28073883 0.16601291
-0.05697298 0.106401786 0.11916839 -1.2120281 -0.61444616 -0.048265915 -0.03570046 0.31146812
-0.123585135 -0.3565108 0.27890706 -0.24618384 -0.39881492 0.05658291 -0.11610862 -0.039879896
-0.12676248 0.13009499 -0.13050012 -0.06525614 -0.005371277 -0.10317472 0.01134501 0.1650624
0.46670413 -0.28010672 -0.47484252 -0.53638023 0.18333691 -0.22219877 -0.35292894 -0.04073089
-0.057003457 0.08340087 0.06555234 0.31100857 0.093639694 -0.29784566 -0.43839523 0.34601268
0.36421883 -0.22961843 0.21349233 -0.28278857 0.17263931 0.194208 -0.7102766 0.061865564
-0.12825108 0.17345558 -0.019934436 -0.1610569 0.20785189 -0.22321059 -0.011283905 -0.1252603
-0.04689359 -0.2854523 -0.19459166 0.215013 0.30880922 -0.46189743 -0.493887 0.23081136
0.19464262 -0.39675164 0.066724256 -0.58777374 -0.23207209 -0.17775741 -0.90547675 0.07931423
-0.14164607 0.09625551 -0.28404918 0.3968254 0.16469073 0.22983602 -0.55837613 -0.1718561
-0.16572045 -0.22944395 -0.029856823 -0.52635336 0.020284576 -0.1998986 -0.42893484 -0.031141534
-0.10963911 0.13120495 -0.021818364 0.24857834 0.38618168 0.03814136 -0.34454963 -0.7206065
0.10851866 -0.8682385 0.29221502 -0.4274385 -0.0014896304 -0.38591906 -0.90348005 0.16256991
-0.6302598 0.1537878 -0.5674732 0.3341273 -0.5463285 -0.23375845 0.25119698 -0.29601082
-0.19597955 -0.8014418 0.07272388 0.25731412 0.25750715 -0.8284073 0.4131873 -0.5103859
-0.24302775 0.05465592 0.29821685 0.0116181625 -0.27466583 0.061926827 0.15899736 -0.07337365
-0.30981714 -0.07633055 -0.10671455 0.16016366 -0.063454576 0.030114992 0.34516925 -0.28781566
-0.34763473 -0.2874187 -0.70244306 0.39926496 -0.559579 -0.1367096 0.18779747 0.0859045
-0.28088138 -0.21054977 -0.5357713 0.043041382 -0.4077716 -0.5650555 0.30863026 -0.44543865
-0.38863853 -0.37864792 0.04147422 -0.27685446 -0.27623987 0.14277364 0.37584424 -0.2666235
-0.48173115 -0.14550908 -0.24017875 0.25712425 -0.21184568 0.37376478 0.3186875 -0.44494638
00000000: 05e1 9b3e 2c82 9bbe 3c04 9a3e fdc0 41bf
00000010: 507a 523e 3976 3abb b312 bcbe 46d7 8fbe
00000020: 5fdf c03e c509 bb3d 0d52 653c c3b9 18bc
00000030: ed18 dbbe 6ebf 973e 4b86 88bd c6eb 9bbe
00000040: 8f99 02be 1391 28be 1192 35bf 4304 d1be
00000050: 4206 2c3e 801e dfbe 69fc 5dbd 153b 4fbd
00000060: f917 c13e 3bf7 ab3e e0b6 21bf ae81 06bd
00000070: 661d b1bd d9f3 1fbd afa1 c0bc 3710 82be
00000080: dcaa 863e 0820 023f 31b3 45be 67a3 203e
00000090: 1c63 e6be a6ae eb3e 56c2 f9be 713e b73e
000000a0: 5570 6abe beb9 ce3e e360 8dbe 220d 4fbe
000000b0: b708 b8be 9578 abbe 449a 2d3b fae8 25be
000000c0: 47dc 483e d037 683d b4d6 b6bd 859c 913e
000000d0: 313f 92be 836b 2cbf a615 13be ccb7 063e
000000e0: 3f09 13be f554 1dbf 5b5a 843e 123d 33bf
000000f0: c6be 65bf bfe8 42bf 0e68 4bbf d832 43be
00000100: 9913 b83d c281 55bd 4d1b 803e 962f 21bf
00000110: ba4b b63c 7dd0 913e ba62 36bd 2226 603e
00000120: 089a 3bbd 7634 f53d 5fc6 1d3e f23c 943d
00000130: 0a6d 0bbe 43d0 fcbd a3ff 993d 2174 dabc
00000140: a33e bdbd 5991 033f 690b 48bf 459d cf3e
00000150: 089a 0fbf 1e02 12bf 00bd 8fbe 4aff 293e
00000160: 805c 69bd 2ee9 d93d 8f0e f43d bd23 9bbf
00000170: 584c 1dbf 7bb2 45bd a53a 12bd c078 9f3e
00000180: 341a fdbd 9588 b6be e8cc 8e3e 9e17 7cbe
00000190: 7831 ccbe 7bc3 673d 5bca edbd 1a59 23bd
000001a0: 06ce 01be 9f37 053e d3a1 05be 03a5 85bd
000001b0: 8a01 b0bb 454d d3bd 6ce0 393c 1e06 293e
000001c0: d8f3 ee3e 266a 8fbe 8f1e f3be 3750 09bf
000001d0: acbc 3b3e 1388 63be 1ab3 b4be 6fd5 26bd
000001e0: 757c 69bd 13ce aa3d 4e40 863d 843c 9f3e
000001f0: 2bc6 bf3d 3a7f 98be 5775 e0be 9328 b13e
00000200: e47a ba3e 1821 6bbe bc9d 5a3e aac9 90be
00000210: 5cc8 303e 76de 463e b0d4 35bf bf66 7d3d
00000220: 4054 03be 579e 313e 8b4d a3bc 1aec 24be
00000230: 20d7 543e 5191 64be 21e0 38bc 3c44 00be
00000240: 7e13 40bd ce26 92be 0943 47be 5e2c 5c3e
00000250: 3e1c 9e3e d27d ecbe c2de fcbe d059 6c3e
00000260: 6550 473e 0823 cbbe baa6 883d 5778 16bf
00000270: 4ea4 6dbe 0a06 36be 53cd 67bf 806f a23d
00000280: ab0b 11be 9c21 c53d e56e 91be b32c cb3e
00000290: b0a4 283e 225a 6b3e bdf1 0ebf 0cfb 2fbe
000002a0: 9fb2 29be 5bf3 6abe 4c96 f4bc 18bf 06bf
000002b0: d72b a63c 38b2 4cbe 599d dbbe 881c ffbc
000002c0: 788a e0bd 975a 063e 6dbc b2bc 528b 7e3e
000002d0: 9bb9 c53e 1d3a 1c3d cf68 b0be ab79 38bf
000002e0: 083f de3d e144 5ebf 359d 953e 38d9 dabe
000002f0: b43f c3ba 2f97 c5be 784a 67bf ba78 263e
00000300: b558 21bf 8d7a 1d3e ec45 11bf bc12 ab3e
00000310: 2fdc 0bbf 605e 6fbe e49c 803e bb8e 97be
00000320: ddae 48be 4a2b 4dbf 42f0 943d adbe 833e
00000330: fad7 833e 8012 54bf 498d d33e a6a8 02bf
00000340: 44dc 78be e3de 5f3d e1af 983e 1b5a 3e3c
00000350: 00a1 8cbe fca6 7d3d 34d0 223e ed44 96bd
00000360: 5aa0 9ebe 3153 9cbd 288d dabd f101 243e
00000370: 79f4 81bd b7b3 f63c 06ba b03e 935c 93be
00000380: 2efd b1be 8b28 93be 4fd3 33bf 756c cc3e
00000390: 9240 0fbf 9afd 0bbe fb4d 403e b3ee af3d
000003a0: afcf 8fbe 5c9a 57be 4f28 09bf 294c 303d
000003b0: 70c7 d0be 7aa7 10bf c904 9e3e 8910 e4be
000003c0: a1fb c6be 24de c1be dfe0 293d debf 8dbe
000003d0: 506f 8dbe 4133 123e a86e c03e e082 88be
000003e0: 77a5 f6be 5500 15be 6bf1 75be caa5 833e
000003f0: 13ee 58be 195e bf3e 022b a33e 03d0 e3be

arith.constant1 f4 [32, 64]
0.1968792 -0.4501682 0.3114958 -0.3049893 0.0310726 0.49770093 0.25980374 0.18557388
0.021236323 0.087558314 0.24907355 0.04152406 0.2338799 0.17866395 -0.18856147 -0.012335846
0.050296523 0.18492608 -0.14901708 0.043627802 0.23555455 -0.0521243 -0.2411006 0.23277113
0.121931195 0.41781217 0.12919278 0.39084113 -0.12219762 0.1588146 0.24659541 0.13545716
-0.03654411 0.10169418 -0.36213183 -0.023557622 0.5534652 0.06717619 0.25974137 0.013795315
0.12391803 -0.16567503 -0.045843083 0.16804646 0.1902811 0.033777684 0.012217497 -0.160508
0.10011635 0.059037685 -0.110994935 0.095083944 -0.05843195 0.18230079 0.1352644 0.34451333
-0.113756835 -0.08256161 0.562772 -0.13313916 0.2352491 0.016625062 0.24286911 -0.15191254
-0.20398214 0.2546656 0.35818765 0.18765303 -0.6686939 0.09170113 -0.19324216 -0.12580456
-0.55158997 -0.603059 0.0843042 0.06735151 0.08308665 0.17850268 -0.3248707 -0.07757464
-0.35009977 -0.076735646 -0.023854166 -0.50770617 0.094907396 0.06314282 -0.32687438 -0.18596208
0.11667529 0.362372 0.041611884 -0.24868578 -0.034071144 0.06551138 -0.08851294 0.08697258
-0.03226697 -0.17397286 -0.01673025 -0.28753763 0.32109305 0.1425359 0.20989215 -0.35521334
-0.22465882 -0.27862334 0.1466714 -0.03766045 0.24220745 0.029552199 -0.5719904 -0.78489083
0.18104099 0.16807681 -0.018373352 0.0018238596 -0.35744843 0.052400656 0.032613974 -0.20825523
0.15012437 -0.27482882 0.2853922 0.4978786 -0.22792596 0.30602628 -0.31266776 -0.2257866
-0.0098129185 0.03426655 -0.16761093 0.4088585 0.172804 -0.43730715 -0.07756655 -0.2549357
0.20056614 0.020086056 0.3369564 0.19118364 0.3118622 -0.27156812 0.16964675 0.308891
0.09608505 -0.048594195 0.5020552 0.1375363 -0.2904111 -0.15834573 -0.024043316 0.12623902
0.072916344 -0.026031913 0.4335902 0.13983585 -0.23778187 0.267974 0.33461532 0.06613601
-0.45814106 0.15125367 0.22011398 -0.03488677 -0.20310907 -0.19555539 0.3291544 -0.12209935
0.20210299 0.58430505 0.18023 -0.08303751 -0.15743198 -0.20952527 0.01264396 0.22540933
0.1836177 -0.028524162 -0.37807757 0.6072939 -0.033482127 0.16122696 0.14845873 -0.65105766
0.14044969 0.14954685 -0.0077652666 0.23810056 0.42029685 -0.07585561 0.5073649 0.49274558
0.022689788 -0.05655631 0.6822232 -0.06754193 0.114342526 0.45584878 0.47608835 -0.17495847
0.07145166 0.051379424 -0.088411324 -0.29634342 0.14103992 0.39940095 -0.13486555 0.07955582
0.34306303 0.32537043 -0.23824641 0.24647559 0.5404217 0.35654956 0.06353101 -0.21050155
0.07445294 0.14338858 -0.20535822 -0.25741756 -0.5577928 0.2649366 0.17089596 0.5881393
0.43003795 -0.1870856 0.03817277 0.31095457 0.40870616 0.36954114 0.13478486 0.43463495
-0.41594878 -0.13216263 0.51746637 0.3317363 0.14554057 0.07912215 0.25357777 0.28928208
0.21001434 0.5666258 -0.27779683 -0.18188763 -0.3985313 0.23250727 0.09376499 0.08417991
-0.10050411 -0.23075034 0.2616992 -0.2121594 -0.073059574 0.48841107 -0.088563025 -0.13637336
00000000: b39a 493e 727c e6be 617c 9f3e 8f27 9cbe
00000010: f78b fe3c a8d2 fe3e ff04 853e 1407 3e3e
00000020: ccf7 ad3c c651 b33d 230d 7f3e 2215 2a3d
00000030: 367e 6f3e aff3 363e 4216 41be 4a1c 4abc
00000040: ba03 4e3d 435d 3d3e ef97 18be 11b3 323d
00000050: 3635 713e 4a80 55bd 13e3 76be 8e5b 6e3e
00000060: 10b7 f93d 7aeb d53e 1d4b 043e 541c c83e
00000070: bf42 fabd 4ba0 223e 8283 7c3e 48b5 0a3e
00000080: 47af 15bd 0a45 d03d 5869 b9be eafb c0bc
00000090: e5af 0d3f ac93 893d d2fc 843e bf05 623c
000000a0: bcc8 fd3d b7a6 29be f5c5 3bbd 5f14 2c3e
000000b0: 0cd9 423e 785a 0a3d e62b 483c 365c 24be
000000c0: cd09 cd3d 80d1 713d 5051 e3bd 5fbb c23d
000000d0: 5756 6fbd 0fad 3a3e c082 0a3e 0d64 b03e
000000e0: 58f9 e8bd 1016 a9bd d311 103f a255 08be
000000f0: 24e5 703e 4831 883c aeb2 783e f68e 1bbe
00000100: b2e0 50be 8863 823e 5f64 b73e 1e28 403e
00000110: 862f 2bbf cdcd bb3d 46e1 45be e9d2 00be
00000120: 0035 0dbf 1362 1abf aea7 ac3d 97ef 893d
00000130: 5529 aa3d 68c9 363e 7455 a6be 74df 9ebd
00000140: 4740 b3be 9427 9dbd d069 c3bc 08f9 01bf
00000150: cf5e c23d 0651 813d 145c a7be d86c 3ebe
00000160: 74f3 ee3d d388 b93e 3971 2a3d 7ca7 7ebe
00000170: 2f8e 0bbd d52a 863d 4646 b5bd ae1e b23d
00000180: 5f2a 04bd f125 32be e10d 89bc 2238 93be
00000190: 4f66 a43e eef4 113e f8ed 563e 86de b5be
000001a0: f60c 66be b8a7 8ebe 0731 163e d841 1abd
000001b0: 3b05 783e 7417 f23c f66d 12bf 9bee 48bf
000001c0: cf62 393e 541c 2c3e b683 96bc 930e ef3a
000001d0: 7b03 b7be 12a2 563d 3b96 053d dc40 55be
000001e0: 34ba 193e 5db6 8cbe ed1e 923e f2e9 fe3e
000001f0: 6c65 69be 7aaf 9c3e fd15 a0be 9a34 67be
00000200: 5dc6 20bc 155b 0c3d 33a2 2bbe e755 d13e
00000210: 88f3 303e b9e6 dfbe 36db 9ebd ef86 82be
00000220: 3661 4d3e 838b a43c 8d85 ac3e a5c5 433e
00000230: 67ac 9f3e fa0a 8bbe e1b7 2d3e f626 9e3e
00000240: 3dc8 c43d b50a 47bd b186 003f 51d6 0c3e
00000250: c4b0 94be 6225 22be 7df6 c4bc cd44 013e
00000260: 2a55 953d e140 d5bc 89ff dd3e 2131 0f3e
00000270: 177d 73be e333 893e b352 ab3e 5172 873d
00000280: 7791 eabe 3ee2 1a3e 8f65 613e 6ee5 0ebd
00000290: d3fb 4fbe ac3f 48be ed86 a83e 390f fabd
000002a0: 16f4 4e3e 0495 153f 378e 383e 920f aabd
000002b0: d935 21be cb8d 56be 9d28 4f3c b4d1 663e
000002c0: 4706 3c3e 81ab e9bc 6293 c1be 9d77 1b3f
000002d0: 8e24 09bd ae18 253e 9105 183e b7ab 26bf
000002e0: 0bd2 0f3e cf22 193e c773 febb a2d0 733e
000002f0: 2631 d73e 305a 9bbd abe2 013f 2649 fc3e
00000300: efdf b93c 97a7 67bd 2ea6 2e3f 6c53 8abd
00000310: 6a2c ea3d 0365 e93e dac1 f33e 5028 33be
00000320: 3f55 923d 3b73 523d ff10 b5bd 53ba 97be
00000330: c56c 103e 487e cc3e 321a 0abe 29ee a23d
00000340: f5a5 af3e f496 a63e def6 73be 1964 7c3e
00000350: 1459 0a3f aa8d b63e 8c1c 823d b88d 57be
00000360: c87a 983d 75d4 123e 6d49 52be 3ccc 83be
00000370: 82cb 0ebf c5a5 873e 5aff 2e3e 4c90 163f
00000380: ef2d dc3e 5e93 3fbe 0d5b 1c3d 7035 9f3e
00000390: ef41 d13e 7f34 bd3e 0b05 0a3e 7988 de3e
000003a0: 3df7 d4be a455 07be ad78 043f 57d9 a93e
000003b0: 9608 153e cb0a a23d f2d4 813e c81c 943e
000003c0: 000e 573e 630e 113f 633b 8ebe c040 3abe
000003d0: 4b0c ccbe 6316 6e3e dc07 c03d 8466 ac3d
000003e0: 19d5 cdbd d149 6cbe 70fd 853e 5040 59be
000003f0: 42a0 95bd 0411 fa3e 8860 b5bd 75a5 0bbe

arith.constant2 f4 [64, 128]
0.014220178 0.09530516 0.047623686 -0.10661243 -0.60693634 -0.27858898 0.030015633 -0.098990515
-0.062897004 0.06853457 0.01389055 0.17266767 0.02851993 -0.06266448 0.35018793 -0.12756994
0.04676062 0.34960824 -0.54694587 0.1715548 0.15930144 -0.0022176802 0.08526398 0.09641327
0.02137243 -0.008316547 -0.033822387 0.13945077 0.08202061 -0.080180824 0.07528016 -0.039610416
0.24456586 0.16976176 -0.16944692 0.1307144 0.056719884 -0.048861563 0.02644938 0.14896302
0.010296221 -0.029774591 -0.076942146 0.08584092 -0.07472669 0.1600401 0.01777421 -0.15029645
-0.0899557 0.22678639 -0.16253422 -0.21915339 -0.09237763 0.4324937 -0.28898218 -0.0018886954
0.022542194 0.19992025 -0.1381532 0.290718 0.08393808 -0.033116747 -0.017531868 0.08987193
0.06161316 -0.049987614 0.11980866 -0.06287871 -0.01006292 -0.105346285 -0.037926733 -0.13777205
0.11155416 0.43610278 0.1390977 0.14075162 0.065668374 0.1570714 -0.047307357 -0.14202982
0.08544382 -0.005033806 0.18313417 0.018930098 -0.40418684 -0.067469455 0.34017286 -0.14757547
-0.11957314 0.054518387 -0.13698666 0.08328063 0.54368365 0.038764108 0.1350243 0.1350912
0.133163 -0.1579955 0.14317648 0.1612993 -0.02883616 0.09338192 0.16870283 0.1096621
0.47863835 0.034570277 0.034869097 -0.059685796 0.13862626 -0.13064386 -0.377208 0.19467747
0.10293826 -0.045917436 0.069694586 0.044281542 0.042376667 0.09373114 -0.06885897 0.1719872
0.092923984 0.117486045 -0.12956637 -0.30851826 0.12226544 0.33816892 0.19475123 -0.1445931
0.15693472 0.0980895 0.0724962 -0.057840772 -0.12951748 -0.18648165 -0.067697614 0.00278987
0.14337777 0.13215299 -0.062503904 0.0966754 0.02724632 0.045583844 0.3925586 -0.019262537
0.10788418 0.23001944 0.06295443 0.035418153 -0.013903618 -0.07340856 0.09811218 -0.10647651
-0.20189054 -0.12227741 0.024879366 0.06469631 0.02091028 0.050403845 -0.07580969 0.07330115
0.44887695 0.16145648 -0.7120486 -0.038847208 0.09233667 0.018111512 0.12483914 -0.10699323
-0.036300372 -0.03920749 0.017726243 -0.033363424 0.17646028 0.006176159 -0.0412288 -0.2554571
0.17366923 0.41259882 0.14200024 -0.32431692 0.12384373 0.41902882 0.10509726 0.13124959
0.0033413619 0.36633277 0.1376747 0.36492747 0.10895712 -0.2626674 0.17972757 -0.0039705336
0.45418078 -0.11943267 -0.035418525 -0.022136241 -0.21512653 -0.28494737 0.11891122 -0.03656964
-0.08325971 0.6922652 -0.09467463 0.087360665 -0.06063569 -0.075040564 0.11415951 -0.078815915
0.014323261 0.023668617 0.0037747475 -0.13274468 -0.14381896 -0.11945271 0.4159695 0.14581476
-0.13616376 -0.12593618 0.0063262433 -0.19705279 0.49818954 0.17491819 0.12047811 0.041158415
-0.13835587 -0.06015662 0.39631793 0.13645606 -0.14169303 0.012874287 -0.099408016 -0.051689193
0.51437473 -0.047574267 0.044533715 -0.06836876 0.077049136 -0.4143084 0.15910242 0.20006235
0.16038042 -0.019929767 -0.10457821 0.026847452 0.11123161 0.15218832 -0.0017045885 0.6594584
0.11389132 0.063834414 -0.066006854 -0.6063913 0.16062413 0.7147272 -0.14819106 0.14257874
00000000: c0fb 683c 5a2f c33d 0e11 433d 9e57 dabd
00000010: 2e60 1bbf 37a3 8ebe 58e3 f53c 8abb cabd
00000020: 25d0 80bd da5b 8c3d 3095 633c cbcf 303e
00000030: a1a2 e93c 3c56 80bd d54b b33e b2a1 02be
00000040: 1088 3f3d daff b23e a504 0cbf 10ac 2f3e
00000050: eb1f 233e 8056 11bb e29e ae3d 5274 c53d
00000060: 3c15 af3c 2042 08bc 5889 0abd 2fcc 0e3e
00000070: 6cfa a73d d835 a4bd 7c2c 9a3d 883e 22bd
00000080: 796f 7a3e 07d6 2d3e 7e83 2dbe ffd9 053e
00000090: 1c53 683d 1023 48bd 5fac d83c c389 183e
000000a0: 7bb1 283c d8e9 f3bc d893 9dbd 5dcd af3d
000000b0: 4f0a 99bd 8de1 233e 389b 913c 50e7 19be
000000c0: b23a b8bd b13a 683e 5f6f 26be bf69 60be
000000d0: 7c30 bdbd d06f dd3e 79f5 93be 1a8e f7ba
000000e0: 68aa b83c e5b7 4c3e 0878 0dbe fdd8 943e
000000f0: bae7 ab3d 6da5 07bd fe9e 8fbc c60e b83d
00000100: 155e 7c3d d0bf 4cbd 3e5e f53d 8ec6 80bd
00000110: f2de 24bc cbbf d7bd 1059 1bbd 1e14 0dbe
00000120: 8276 e43d dd48 df3e a16f 0e3e 3121 103e
00000130: 247d 863d 53d7 203e 5cc5 41bd 4470 11be
00000140: 2bfd ae3d a0f2 a4bb 8687 3b3e 4b13 9b3c
00000150: 94f1 cebe 6d2d 8abd 232b ae3e 061e 17be
00000160: c3e2 f4bd ac4e 5f3d 3b46 0cbe 098f aa3d
00000170: da2e 0b3f 1dc7 1e3d cf43 0a3e 5955 0a3e
00000180: e25b 083e 93c9 21be db9c 123e a52b 253e
00000190: d039 ecbc 053f bf3d 6fc0 2c3e 8696 e03d
000001a0: 1610 f53e 9099 0d3d e6d2 0e3d 1879 74bd
000001b0: 0bf4 0d3e 81c7 05be 6821 c1be 8859 473e
000001c0: 4bd1 d23d ec13 3cbd 09bc 8e3d 9060 353d
000001d0: 2893 2d3d 1df6 bf3d ef05 8dbd 6a1d 303e
000001e0: ee4e be3d 869c f03d 0cad 04be 1bf6 9dbe
000001f0: 4e66 fa3d 7a24 ad3e de6c 473e 3710 14be
00000200: 7fb3 203e 26e3 c83d e378 943d 72ea 6cbd
00000210: 3ba0 04be 0cf5 3ebe 0ca5 8abd 40d6 363b
00000220: 9fd1 123e 1d53 073e 0c02 80bd c1fd c53d
00000230: ad33 df3c 20b6 3a3d 71fd c83e 78cc 9dbc
00000240: 62f2 dc3d 378a 6b3e 41ee 803d a012 113d
00000250: 00cc 63bc 3a57 96bd 0aef c83d 5b10 dabd
00000260: 65bc 4ebe 946c fabd d0cf cb3c 807f 843d
00000270: 094c ab3c 4374 4e3d 1c42 9bbd ea1e 963d
00000280: 33d3 e53e d954 253e d148 36bf 401e 1fbd
00000290: 021b bd3d 985e 943c aaab ff3d 441f dbbd
000002a0: b3af 14bd 0898 20bd a036 913c 16a8 08bd
000002b0: 01b2 343e 6061 ca3b 88df 28bd 46cb 82be
000002c0: 59d6 313e 2740 d33e 8368 113e de0c a6be
000002d0: c8a1 fd3d f28a d63e 3b3d d73d 4b66 063e
000002e0: c0fa 5a3b f88f bb3e 99fa 0c3e c6d7 ba3e
000002f0: e924 df3d 577c 86be 810a 383e 401b 82bb
00000300: 628a e83e 1e99 f4bd 0413 11bd 1057 b5bc
00000310: 214a 5cbe 9fe4 91be ba87 f33d 0cca 15bd
00000320: 1184 aabd 4b38 313f c6e4 c1bd 26ea b23d
00000330: 215d 78bd deae 99bd 76cc e93d 3d6a a1bd
00000340: 1cac 6a3c b0e4 c13c c161 773b 39ee 07be
00000350: 4745 13be 9fa3 f4bd f4f9 d43e 7750 153e
00000360: 836e 0bbe 6af5 00be 604c cf3b 35c8 49be
00000370: b312 ff3e c11d 333e 3abd f63d ba95 283d
00000380: 29ad 0dbe ca66 76bd 2fea ca3e 23bb 0b3e
00000390: fa17 11be acee 523c 6e96 cbbd 0cb8 53bd
000003a0: 10ae 033f 3cdd 42bd fc68 363d ec04 8cbd
000003b0: f0cb 9d3d 3b20 d4be bfeb 223e 25dd 4c3e
000003c0: c43a 243e c043 a3bc 1a2d d6bd 30ef db3c
000003d0: 66cd e33d 41d7 1b3e 806c dfba 44d2 283f
000003e0: da3f e93d 9ebb 823d 9a2e 87bd 763c 1bbf
000003f0: a77a 243e 5df8 363f 66bf 17be 2900 123e

arith.constant3 f4 [26]
0.29491234 0.03292418 -0.33806506 -0.060371105 0.13616768 -0.052642282 -0.2114433 -0.067910984
0.28751272 -0.071169496 0.14993972 0.007253345 0.2617215 -0.06764632 -0.19285262 -0.019334294
0.06915931 0.19310777 0.21536322 -0.07811639 -0.123503864 -0.22272278 0.05379715 -0.13981988
0.025551572 -0.18809375
00000000: c0fe 963e 81db 063d dd16 adbe b147 77bd
00000010: 8a6f 0b3e 6f9f 57bd 9884 58be ea14 8bbd
00000020: de34 933e 50c1 91bd cc89 193e 78ad ed3b
00000030: 5c00 863e 278a 8abd 287b 45be f462 9ebc
00000040: 65a3 8d3d 0bbe 453e 2d88 5c3e 7cfb 9fbd
00000050: 98ef fcbd 7111 64be 665a 5c3d f12c 0fbe
00000060: 8851 d13c a69b 40be

arith.constant4 f4 [32]
0.41684723 0.0052493666 0.07823087 0.1754404 0.33366314 0.31266868 0.20147602 0.42088053
0.035537615 0.41417447 -0.13751025 0.029231394 -0.113245055 0.41210377 -0.1582404 -0.21485192
-0.004134504 -0.36478487 0.017405903 0.096615836 0.1474286 -0.019465258 0.07167189 0.42072818
0.5038539 0.11445903 -0.13935323 0.26855525 0.08334453 0.13423586 0.3590797 0.19769296
00000000: 006d d53e e102 ac3b 8237 a03d a6a6 333e
00000010: e5d5 aa3e 1c16 a03e bb4f 4e3e a77d d73e
00000020: e48f 113d ad0e d43e 7dcf 0cbe ad76 ef3c
00000030: 06ed e7bd 44ff d23e c509 22be 2402 5cbe
00000040: bc7a 87bb 15c5 babe d396 8e3c 86de c53d
00000050: 86f7 163e 9b75 9fbc b6c8 923d af69 d73e
00000060: 92fc 003f 7f69 ea3d 9db2 0ebe 1380 893e
00000070: 89b0 aa3d 2075 093e 4bd9 b73e 0670 4a3e

sequential_1/dense_1_2/BiasAdd/ReadVariableOp f4 [64]
-0.15258229 -0.098475896 0.21812448 -0.21042289 -0.02087445 0.20159517 0.093164474 0.40698782
0.23215553 -0.049889807 0.086728916 -0.043747168 0.091543965 0.26511642 -0.069903456 -0.0005082531
0.010298357 -0.15476917 0.30037618 -0.07385951 -0.04104597 -0.16211489 -0.2619833 0.12360203
-0.023005754 0.14071077 0.121810466 0.30741662 -0.095690206 0.07749544 0.2765307 0.12215002
0.025398651 0.22096196 -0.28399274 0.009852795 0.25648707 -0.047928825 0.26349494 0.046531018
-0.06605468 0.3059123 -0.08215332 -0.03949936 0.020605782 -0.011995398 -0.058502246 -0.11191538
0.28587028 0.12719962 0.059315234 0.15168707 -0.03636856 -0.23922572 0.3667905 0.25423133
-0.23817484 0.09279865 0.30713597 -0.032831218 0.124381915 -0.014106862 0.2844856 -0.038453646
00000000: 883e 1cbe bbad c9bd 065c 5f3e 1979 57be
00000010: e500 abbc f76e 4e3e 04cd be3d b560 d03e
00000020: 2eba 6d3e 4159 4cbd ee9e b13d 3b30 33bd
00000030: 677b bb3d 57bd 873e 8b29 8fbd 4a3c 05ba
00000040: 71ba 283c cf7b 1ebe e8ca 993e a843 97bd
00000050: d21f 28bd 7201 26be ad22 86be 1023 fd3d
00000060: 9076 bcbc 7c16 103e c477 f93d b665 9d3e
00000070: 3af9 c3bd eeb5 9e3d 6f95 8d3e ca29 fa3d
00000080: d510 d03c da43 623e 7f67 91be 9e6d 213c
00000090: 4652 833e 0451 44bd cfe8 863e 4f97 3e3d
000000a0: ad47 87bd 89a0 9c3e 0040 a8bd 15ca 21bd
000000b0: 75cd a83c 5988 44bc 0da0 6fbd e433 e5bd
000000c0: 975d 923e 9e40 023e 88f4 723d db53 1b3e
000000d0: 33f7 14bd 96f7 74be f7cb bb3e 9c2a 823e
000000e0: 1be4 73be 380d be3d ed40 9d3e 077a 06bd
000000f0: f2bb fe3d 7820 67bc 19a8 913e 9281 1dbd

sequential_1/dense_1/BiasAdd/ReadVariableOp f4 [128]
0.0 0.0 -0.08046528 0.0 0.01594673 -0.08522791 0.0 0.0
0.0 0.0 0.0 -0.010123889 -0.16195467 0.0 -0.21508801 0.0
0.0 -0.26668274 0.07515174 0.19308794 -0.0053929803 0.0 -0.12580027 0.0
0.13848852 0.0 0.0 -0.0885769 -0.009158763 0.03366252 0.18259947 0.0
-0.06289163 0.0 0.25578657 0.0 0.0 0.0 -0.35680792 0.0
0.0049632858 0.0 0.0 -0.011086576 -0.012414647 0.0 0.0 0.115978666
0.0 -0.4362159 0.0 0.2052069 -0.0033765174 -0.177428 0.14017327 -0.07206871
0.0 -0.14836578 0.0 -0.45374262 -0.15942875 0.042146288 -0.011300147 0.0
-0.142362 -0.12009356 0.0 0.0 0.018022245 0.10187614 0.0 0.0
0.0 -0.13937725 0.0 -0.15487726 0.12737213 0.0 0.0 0.0
-0.012509212 0.0 0.13631675 0.005189844 -0.014589935 -0.3185233 -0.31218255 0.0
-0.00853921 0.0 0.0 -0.0012355344 -0.27992737 -0.38094515 0.0 -0.25066146
-0.00757712 0.0 -0.24062085 0.0 0.0 -0.028066508 0.0 -0.2433037
-0.33770972 0.0 -0.118471086 0.0 -0.27083945 0.1643712 -0.061096627 -0.3932343
-0.008701792 0.0 -0.14001073 0.0 0.0 -0.009714263 0.0 0.06433251
-0.20536534 -0.20008665 0.0 0.26561216 0.0 -0.30225652 -0.19380103 0.0
00000000: 0000 0000 0000 0000 fbca a4bd 0000 0000
00000010: b7a2 823c f88b aebd 0000 0000 0000 0000
00000020: 0000 0000 0000 0000 0000 0000 abde 25bc
00000030: 72d7 25be 0000 0000 0840 5cbe 0000 0000
00000040: 0000 0000 a48a 88be 28e9 993d d8b8 453e
00000050: 99b7 b0bb 0000 0000 c9d1 00be 0000 0000
00000060: efcf 0d3e 0000 0000 0000 0000 ce67 b5bd
00000070: a30e 16bc b6e1 093d 5bfb 3a3e 0000 0000
00000080: 54cd 80bd 0000 0000 75f6 823e 0000 0000
00000090: 0000 0000 0000 0000 87af b6be 0000 0000
000000a0: 0fa3 a23b 0000 0000 0000 0000 78a4 35bc
000000b0: ce66 4bbc 0000 0000 0000 0000 3986 ed3d
000000c0: 0000 0000 b157 dfbe 0000 0000 c221 523e
000000d0: 9048 5dbb b0af 35be 9589 0f3e c398 93bd
000000e0: 0000 0000 33ed 17be 0000 0000 f450 e8be
000000f0: 4a41 23be 96a1 2c3d 4024 39bc 0000 0000
00000100: 58c7 11be 9df3 f5bd 0000 0000 0000 0000
00000110: 63a3 933c 70a4 d03d 0000 0000 0000 0000
00000120: 0000 0000 e9b8 0ebe 0000 0000 2598 1ebe
00000130: d76d 023e 0000 0000 0000 0000 0000 0000
00000140: 70f3 4cbc 0000 0000 9e96 0b3e 910f aa3b
00000150: 9f0a 6fbc 7c15 a3be 64d6 9fbe 0000 0000
00000160: 0be8 0bbc 0000 0000 0000 0000 a8f1 a1ba
00000170: a452 8fbe 3e0b c3be 0000 0000 b356 80be
00000180: 7d49 f8bb 0000 0000 5065 76be 0000 0000
00000190: 0000 0000 bceb e5bc 0000 0000 9b24 79be
000001a0: 4ae8 acbe 0000 0000 f8a0 f2bd 0000 0000
000001b0: 78ab 8abe ed50 283e 7540 7abd 0256 c9be
000001c0: f691 0ebc 0000 0000 f95e 0fbe 0000 0000
000001d0: 0000 0000 9228 1fbc 0000 0000 c3c0 833d
000001e0: 4b4b 52be 84e3 4cbe 0000 0000 51fe 873e
000001f0: 0000 0000 5ec1 9abe c773 46be 0000 0000

sequential_1/dense_1/MatMul f4 [128, 42]
-0.16106643 -0.18692242 0.09867212 0.044426277 -0.15821601 -0.035968423 -0.16378704 -0.019981474
-0.018625915 -0.14484105 -0.014384106 -0.012252316 -0.07634093 -0.113177985 -0.18451454 -0.074092194
0.15171751 -0.027225614 0.10168797 -0.09217188 -0.18499327 -0.0520768 0.12226939 0.11466882
-0.1712796 -0.11487731 -0.08139689 0.11107093 -0.07290097 -0.0001694411 -0.18042327 0.020398155
-0.03937438 0.14976823 0.045616463 0.0071713626 -0.031138688 0.13943574 0.18523294 -0.03380403
0.08483747 -0.04486899 -0.07796133 -0.057133183 -0.12917385 -0.025666699 -0.079300225 0.15716678
0.044188112 0.082016855 -0.025191516 -0.044748098 0.09135011 -0.18044178 0.0022271425 -0.046437353
0.10477176 0.17290783 -0.12536898 -0.040873542 0.17655462 0.1673722 -0.059420392 0.040728956
-0.0882893 -0.07965578 0.07025108 -0.024311155 -0.06304578 -0.09684331 -0.037892878 0.03781861
-0.13442081 0.024760857 0.07575479 -0.14535749 -0.0057165474 -0.12323769 0.024747819 0.1143426
-0.15790467 0.09541184 -0.008725479 -0.011214867 0.068467155 0.07359271 -0.15737306 -0.09276224
-0.060926292 0.019497085 -0.09107291 0.20724764 -0.07903354 -0.05662354 -0.17515334 0.16865076
-0.074317 0.040796183 -0.09502862 -0.19783841 0.124814704 0.039240487 0.14859636 0.15438657
0.06789963 -0.029241545 0.21310595 -0.292238 0.1870778 -0.27154773 -0.028931107 0.13674614
-0.03499019 0.043433487 0.28761235 -0.29486492 0.06919871 -0.28634417 0.08701657 0.17114557
0.15777881 0.036420327 0.3526262 0.03252642 0.39092577 -0.27732143 0.060192093 0.18646538
-0.08393722 -0.14568119 -0.10636952 0.06726873 0.07842353 -0.076115586 0.1324682 -0.12112405
-0.1356088 0.0781723 0.18136162 0.085149616 0.046962738 -0.113027796 -0.17984763 -0.0805838
-0.12993217 -0.06484629 0.14454591 -0.14346425 -0.10148201 -0.011478379 -0.13920897 -0.107803956
0.035140544 0.14244688 0.14953783 0.13216266 -0.15713072 -0.13351272 -0.008390978 0.14810067
0.10187411 -0.1099227 -0.11788476 0.018522084 -0.067924865 -0.17423572 0.094784796 0.09439641
-0.061296053 0.21385275 -0.09348789 0.166375 -0.24852376 0.1256507 -0.24970256 0.056720592
-0.10100475 0.12982503 -0.00097594055 0.07217486 -0.38058427 0.11070292 -0.22890978 -0.14752838
-0.35090443 0.15307692 -0.27725437 0.24569468 -0.34178743 0.14398809 -0.059182275 -0.08572944
-0.36100063 0.007967226 -0.31464958 0.013533004 -0.3851036 0.22142614 -0.25772667 0.16103482
-0.28284892 0.17082416 -0.23167723 0.27718976 -0.17690106 0.16669202 -0.15174271 0.06709846
-0.10408425 0.22933659 0.16781181 0.2338222 0.00025434134 0.107514925 -0.116342075 0.20340228
0.12960109 0.012291426 -0.019968169 0.24414788 -0.16334757 0.18858747 0.071979724 -0.15620162
0.2154878 -0.49166623 0.032536577 -0.6426224 0.04799559 0.18828665 -0.14487182 -0.2076161
-0.15002136 -0.103728145 -0.10791987 0.052159723 0.046938635 0.15350708 0.09218439 -0.06991926
-0.1354885 0.10439809 -0.12055846 0.10405417 -0.0360655 -0.07375776 -0.16415855 0.13737652
-0.047951233 0.12957503 -0.13724127 0.40538663 0.1339772 -0.058875367 -0.008794948 -0.089164875
00000000: 99ee 24be 9768 3fbe 9c14 ca3d 54f8 353d
00000010: 6103 22be a053 13bd cab7 27be 30b0 a3bc
00000020: 6095 98bc 3651 14be 50ab 6bbc f0bd 48bc
00000030: a258 9cbd dcc9 e7bd 61f1 3cbe a6bd 97bd
00000040: d65b 1b3e 4008 dfbc c841 d03d 9cc4 bcbd
00000050: e06e 3dbe 7c4e 55bd 6068 fa3d 7cd7 ea3d
00000060: eb63 2fbe cc44 ebbd 6ab3 a6bd 2879 e33d
00000070: 1b4d 95bd 00ac 31b9 e1c0 38be 081a a73c
00000080: 0847 21bd d85c 193e 54d8 3a3d c0fd ea3b
00000090: 9016 ffbc 3ec8 0e3e b4ad 3d3e 1876 0abd
000000a0: 44bf ad3d 8cc8 37bd 31aa 9fbd 7c04 6abd
000000b0: 2646 04be f842 d2bc 2868 a2bd 54f0 203e
000000c0: 98fe 343d 74f8 a73d 705e cebc c849 37bd
000000d0: c415 bb3d bbc5 38be 40f5 113b 1835 3ebd
000000e0: 9492 d63d c00e 313e ba60 00be 046b 27bd
000000f0: bcca 343e 9e63 2b3e cc62 73bd 68d3 263d
00000100: 05d1 b4bd 9222 a3bd ccdf 8f3d 3028 c7bc
00000110: 251e 81bd c955 c6bd 9035 1bbd b0e7 1a3d
00000120: 9ca5 09be 48d7 ca3c 5425 9b3d 98d8 14be
00000130: e051 bbbb 0b64 fcbd f0bb ca3c 742c ea3d
00000140: c3b1 21be 4867 c33d 50f5 0ebc 90be 37bc
00000150: 8238 8c3d c6b7 963d 6726 21be 21fa bdbd
00000160: d98d 79bd 5ab8 9f3c 6f84 babd ba38 543e
00000170: 56dc a1bd 16ee 67bd 665b 33be c9b2 2c3e
00000180: 8333 98bd e619 273d 5d9e c2bd 2796 4abe
00000190: da9e ff3d a2ba 203d a529 183e 8317 1e3e
000001a0: f60e 8b3d f78b efbc 7238 5a3e 38a0 95be
000001b0: 5391 3f3e 4e08 8bbe ee00 edbc 2e07 0c3e
000001c0: e051 0fbd 50e7 313d ed41 933e 89f8 96be
000001d0: 0eb8 8d3d b49b 92be be35 b23d c940 2f3e
000001e0: c590 213e 7b2d 153d 6c8b b43e 6c3a 053d
000001f0: 6c27 c83e 13fd 8dbe fc8b 763d c8f0 3e3e
00000200: 47e7 abbd 732d 15be 43d8 d9bd 30c4 893d
00000210: 849c a03d 7de2 9bbd bea5 073e e30f f8bd
00000220: 09dd 0abe cc18 a03d dcb6 393e ec62 ae3d
00000230: 005c 403d 1e7b e7bd fa29 38be 1f09 a5bd
00000240: f00c 05be 22ce 84bd d803 143e 4be8 12be
00000250: cdd5 cfbd d00f 3cbc cc8c 0ebe 52c8 dcbd
00000260: 88ef 0f3d 98dd 113e 7220 193e a655 073e
00000270: e0e6 20be 8fb7 08be 507a 09bc b4a7 173e
00000280: 60a3 d03d 271f e1bd 916d f1bd a0bb 973c
00000290: 311c 8bbd d96a 32be 881e c23d e852 c13d
000002a0: 9211 7bbd 37fc 5a3e 9476 bfbd 355e 2a3e
000002b0: 037d 7ebe 94aa 003e 07b2 7fbe da53 683d
000002c0: 94db cebd daf0 043e 43d6 7fba 6ad0 933d
000002d0: f1db c2be 36b8 e23d 5367 6abe ae11 17be
000002e0: bfa9 b3be 32c0 1c3e 49f4 8dbe 6397 7b3e
000002f0: c3fe aebe 9d71 133e 1d69 72bd eb92 afbd
00000300: 13d5 b8be f888 023c c019 a1be 88b9 5d3c
00000310: 4d2c c5be 89bd 623e c0f4 83be 50e6 243e
00000320: 93d1 90be 87ec 2e3e cc3c 6dbe d1eb 8d3e
00000330: 8d25 35be 50b1 2a3e 7162 1bbe eb6a 893d
00000340: 202a d5bd 36d7 6a3e dcd6 2b3e 166f 6f3e
00000350: 1e59 8539 c930 dc3d c144 eebd b048 503e
00000360: 26b6 043e fa61 493c 4994 a3bc e701 7a3e
00000370: 9644 27be 131d 413e 1b6a 933d 51f3 1fbe
00000380: d5a8 5c3e adbb fbbe 1345 053d e782 24bf
00000390: 0697 443d 37ce 403e 4759 14be 5199 54be
000003a0: 339f 19be 6c6f d4bd 1805 ddbd 6fa5 553d
000003b0: ba42 403d f630 1d3e 2bcb bc3d d431 8fbd
000003c0: 7fbd 0abe aace d53d 5be7 f6bd 5a1a d53d
000003d0: 6bb9 13bd 4f0e 97bd 2e19 28be 6eac 0c3e
000003e0: 8368 44bd 51af 043e fa88 0cbe d68e cf3e
000003f0: 5231 093e 4c27 71bd b018 10bc 139c b6bd
